trained_model.npz (npz, 53998 bytes, 6 tensors)

W1 f8 [64, 64]
0.16243453636632418 -0.06117564136500754 -0.052817175226345575 -0.10729686221561706 0.08654076293246786 -0.23015386968802828 0.174481176421648 -0.07612069008951028
0.03190390960570986 -0.02493703754774101 0.1462107937044974 -0.20601407094976543 -0.03224172040135075 -0.03840543546684157 0.11337694423354375 -0.1099891267314031
-0.017242820755043575 -0.08778584179213718 0.004221374671559283 0.058281521371582226 -0.11006191772129213 0.11447237098396142 0.09015907205927956 0.05024943389018682
0.09008559492644119 -0.06837278591743332 -0.012289022551864818 -0.09357694342590689 -0.026788807962601593 0.0530355466738186 -0.06916607517253091 -0.03967535268559774
-0.06871727001195994 -0.08452056414987197 -0.06712461308368191 -0.0012664598918901361 -0.11173103486352778 0.023441569781709217 0.16598021771098706 0.07420441605773356
-0.019183555236161495 -0.08876289640848363 -0.07471582937508377 0.16924546010277466 0.005080775477602897 -0.06369956465693534 0.019091548466746603 0.21002551364788424
0.012015895248162916 0.061720310970741925 0.03001703199558275 -0.035224984649351865 -0.11425181980221402 -0.03493427224128775 -0.020889423337477814 0.058662319118219765
0.0838983413874505 0.09311020813035574 0.02855873252542588 0.08851411642707281 -0.07543979409966528 0.1252868155233288 0.05129298204180088 -0.029809283510271567
0.09255823550831128 0.015184775510746321 0.04011947749419586 0.09183365009148944 0.09484471585649294 -0.23338636742725954 -0.20528887897265602 -0.1419084472622107
-0.06307120611808746 0.1503133619326148 0.055613466607228955 -0.1323578063075552 -0.04302622651092138 0.09943701633020856 0.005085235258792243 -0.0251767414547847
0.011587175638845476 -0.009497719743194513 0.06964224262427807 0.08572321342729552 -0.03402288487243119 -0.06878823559047859 -0.05144611672607189 0.025254098028948693
-0.02660981354446932 0.14056926765682407 0.08636418425984897 0.035595156312802544 -0.15266271959598907 0.017420117776204058 -0.004575799260540979 -0.05256958172563331
-0.0874448966451465 0.048033973484567866 -0.008931051286630791 0.013943664098684017 -0.12489449432109208 0.21183364259002577 0.16422582422246304 0.09595627282898565
-0.1252937365399991 0.0005156639272832507 -0.0568359493182768 0.01546279482290171 0.034428659937981686 0.05628539870766971 -0.024165321640249173 0.034170483997384433
0.14161694015293347 -0.06262673470291451 0.019527540403174417 -0.17983616121057208 0.02773987227466278 -0.1402071038649263 0.1568238187829982 0.09868930747092881
0.11902128362978795 -0.153176178757935 0.09556907455041701 0.18717796572846393 -0.19662416100641877 0.06819522068767883 0.21203873192885495 -0.02250204847045787
-0.11124532738060917 0.5513943431573979 -0.4086479944706181 0.11742085173297304 -0.07345032567545147 -0.005200626302544179 -0.09178261266692885 -0.39871407375048773
-0.3363363370642814 0.12849938180965625 0.5113519349985668 0.3600318261121057 0.3563591159552151 0.15898088484738218 0.07755412523214229 -0.12730477327612755
-0.2997769401793753 0.23969867687011387 0.42594085013610866 0.34050078687814717 -0.5693508227285174 -0.140731252020584 -0.012479965535147958 -0.3359449755485429
-0.28313475847791314 0.009032254777375988 -0.0008681555527910981 -0.12702388575254414 -0.5425491549880521 -0.22983003496624652 -0.10894090289792058 -0.11990788467378022
-0.047705550771561515 0.0787831074431791 0.2540569187554758 0.12445296262322707 -0.3656445738505264 0.3458803132430059 0.5577085737294567 0.14480971794435865
0.2575943464281029 -0.15025326090261767 -0.5182442411766353 0.604647780681206 0.5927979627115216 0.35147339445594333 0.3888424449464589 -0.3394739614125645
0.32186139282906245 -0.25529288093794933 -0.06903934055293608 -0.291446064736747 -0.36925573337055306 0.304635563673912 0.23994041752715173 0.24005288010413547
0.22879814220171224 0.01825842615978393 0.2645883408576063 0.11681698302506578 0.3214394781105972 0.05610337208657854 0.14330214938734231 -0.06735033027888432
0.01605327414808231 -0.16642174704162954 -0.10076228825338084 -0.6179357252738314 0.07080008444937072 0.26432319661805276 0.6240927928961442 0.3104050784013669
-0.4898098591048443 0.41394309560548426 -0.22109804953979614 -0.13755681050205495 -0.3116627300513029 0.2309983340479382 -0.25492334926602667 0.20196147927290628
0.2586811175018551 0.23739364863898085 0.06172000983223423 -0.3265860401992793 0.4448144650770391 -0.14786089065926922 0.1349095095851227 0.20421676533093003
-0.12535400894127072 0.41843084063109204 0.3822834726635946 -0.31924850168809604 -0.28926363064442806 0.4491756683451674 0.5182884786287503 -0.16415152222984464
-0.3452601246253256 -0.09810908018111072 0.11676220583739541 -0.2730629237294214 -0.2539421450476267 0.14850571516410094 0.08416260688750697 0.04123066122662688
-0.23441261619723575 0.15480681664673682 -0.24225223288682848 0.16109624151585503 0.5316032794083235 -0.2639351232633839 0.0627939299347063 0.09869144699962083
-0.12800584790954248 -0.2975015077225982 0.1768227918128307 -0.4539380138206902 0.10208241336889146 -0.022574715680452752 0.3395969241152412 0.19806819386002683
0.2012719476478313 -0.1702294256838377 0.12035697697084415 -0.08600782480953131 0.03153507521588229 0.16213216393100274 -0.34151197633312236 -0.25758786633364544
00000000: a796 b7a6 a7ca c43f e2f5 f2e5 6952 afbf
00000010: 844c 8750 da0a abbf 47f3 2da2 ce77 bbbf
00000020: cbda 9012 8927 b63f 8fd0 ad97 ae75 cdbf
00000030: 9ed1 3f31 6655 c63f f8bf 7b42 a57c b3bf
00000040: 1dfc bd90 b555 a03f 9f1c e842 1889 99bf
00000050: f839 a408 09b7 c23f 545e 9f48 ab5e cabf
00000060: 5f93 619d fc81 a0bf aa2f a392 e0a9 a3bf
00000070: 127e 9a7b 4506 bd3f 141b 3a56 3f28 bcbf
00000080: a04f ef1c 1aa8 91bf 258f 8c07 2279 b6bf
00000090: a341 89a2 6e4a 713f 6a0f 8158 13d7 ad3f
000000a0: d7e2 2591 042d bcbf 1df4 abb1 0f4e bd3f
000000b0: 12ac ee39 aa14 b73f f8d7 6636 4bba a93f
000000c0: a0bd 0c7c d90f b73f 36a8 73ff e080 b1bf
000000d0: 0237 aeaf fc2a 89bf 8485 ac97 a8f4 b7bf
000000e0: 148e 6478 866e 9bbf 00a4 faa4 7927 ab3f
000000f0: 9fd3 db2e deb4 b1bf 60db 7bec 5350 a4bf
00000100: 492c 5f7b 7497 b1bf b8f8 dcc2 23a3 b5bf
00000110: 2979 f321 142f b1bf 62b0 4ff4 eabf 54bf
00000120: fae4 afb4 679a bcbf 473f 511e 1101 983f
00000130: d902 6dfb d63e c53f 62ce 2f84 0fff b23f
00000140: 8ff8 7099 daa4 93bf 4d34 2c49 2ab9 b6bf
00000150: 0dd5 a89b 9320 b3bf 61a6 11d2 d5a9 c53f
00000160: 90e5 3b48 94cf 743f cd91 f85a 9d4e b0bf
00000170: 71bf 2d21 bc8c 933f e4bc 38b4 1de2 ca3f
00000180: b6f2 fb28 ca9b 883f 0f90 3cfa cd99 af3f
00000190: afde f9ea c8bc 9e3f 1063 245a 0209 a2bf
000001a0: 421a 8f75 9b3f bdbf 5f60 92a9 e7e2 a1bf
000001b0: 685e 4478 0964 95bf f593 3dcc fc08 ae3f
000001c0: 4c9f 7298 5c7a b53f 37f8 d712 12d6 b73f
000001d0: 6a00 d918 803e 9d3f 9de2 4973 dca8 b63f
000001e0: f89b 79b8 0550 b3bf 9d76 a5fb 6509 c03f
000001f0: 0088 c4e0 1243 aa3f 20dc 2c27 5386 9ebf
00000200: 55d1 7b82 e5b1 b73f e2de b911 3219 8f3f
00000210: ef54 8a47 8a8a a43f 86b4 d0fb 6882 b73f
00000220: 2353 cd48 be47 b83f 3e56 b7bf 9adf cdbf
00000230: 84c4 b5ee e746 cabf 0e38 0256 0e2a c2bf
00000240: a7b1 983f 6f25 b0bf 9481 d3de 773d c33f
00000250: 3b29 9748 5e79 ac3f 4f0a bbc0 19f1 c0bf
00000260: 032a 7897 8807 a6bf 936a 264d b474 b93f
00000270: 0e4c 1072 41d4 743f ec2e ac84 eec7 99bf
00000280: 7df2 5f63 04bb 873f 1b00 785d 8a73 83bf
00000290: 86ca 7df2 12d4 b13f 9aa2 2dde f4f1 b53f
000002a0: cd71 af93 726b a1bf 14ed 3516 1b9c b1bf
000002b0: 8d79 b039 2557 aabf d44b 7fd4 35dc 993f
000002c0: 9a61 b45b 9a3f 9bbf 4351 b47b 2cfe c13f
000002d0: cb17 f192 f61b b63f 83dc 8440 8739 a23f
000002e0: 37d9 fdb5 738a c3bf b0a7 9050 94d6 913f
000002f0: 8b56 d5c2 12be 72bf 204f 8d74 66ea aabf
00000300: 5502 4beb c962 b6bf 0422 6db2 e897 a83f
00000310: 9c50 8f69 714a 82bf 5a72 52ea 7e8e 8c3f
00000320: 8d3e 8fe8 15f9 bfbf 77f0 8e63 5d1d cb3f
00000330: 09d9 1810 5a05 c53f 1784 a51d 9790 b83f
00000340: a89d 6a0a a009 c0bf 094a 09da b3e5 403f
00000350: f943 1eff 9919 adbf 4a8f 8d30 f5aa 8f3f
00000360: fb1c f520 a2a0 a13f a32e 6295 70d1 ac3f
00000370: 979a 9148 cbbe 98bf 41b7 832e cb7e a13f
00000380: a81a 42ff 8020 c23f 4b7f 6741 4e08 b0bf
00000390: a79f 9c0d 07ff 933f c7cf 840f df04 c7bf
000003a0: 1d0d dc50 d767 9c3f 5424 e26e 4ef2 c1bf
000003b0: 4712 748a cd12 c43f 7572 0dd4 b343 b93f
000003c0: f2c6 b7c8 2d78 be3f 8452 25eb 469b c3bf
000003d0: 93f9 b301 3777 b83f adf3 aa94 72f5 c73f
000003e0: 0021 9002 fb2a c9bf 72da 98f2 3d75 b13f
000003f0: bd53 8fcd 1524 cb3f ba30 18e9 c60a 97bf
00000400: 45ba eee2 927a bcbf 01ef e1bf 05a5 e13f
00000410: 61f2 f4ea 4927 dabf fac3 0ffe 4a0f be3f
00000420: cd17 a8fa a3cd b2bf 2ad7 357e 404d 75bf
00000430: f5f2 beb7 107f b7bf 54a6 cd08 8884 d9bf
00000440: fd70 09d8 8886 d5bf 58df 36f1 aa72 c03f
00000450: cf15 b2bb fe5c e03f faeb aaed c20a d73f
00000460: 082f 2a77 96ce d63f 31e8 8d52 7c59 c43f
00000470: 8dbc 8a4f 96da b33f ac3e ecd6 854b c0bf
00000480: 5895 8a9e 8b2f d3bf 2e9b 063d 72ae ce3f
00000490: 8d5c 5769 9d42 db3f a1d9 f9cf c3ca d53f
000004a0: c93a 7237 1f38 e2bf ac0d 7a4e 7b03 c2bf
000004b0: 7d1c a19e 188f 89bf 0123 cf5a 1f80 d5bf
000004c0: f480 0140 e11e d2bf f114 06b7 807f 823f
000004d0: ee8c 81da 9d72 4cbf 321b 8f95 5142 c0bf
000004e0: 02ad a40b 905c e1bf bfc6 e811 126b cdbf
000004f0: 08ae 240f 8de3 bbbf 50d8 347b 48b2 bebf
00000500: 9794 cda8 dc6c a8bf f219 f235 212b b43f
00000510: a525 58f3 7742 d03f fb68 5b3c 26dc bf3f
00000520: aa76 a97f b866 d7bf 5f5f 6d2e e722 d63f
00000530: 00bd 9ba6 bfd8 e13f 8264 5bf5 1f89 c23f
00000540: bbc3 62ff 6c7c d03f 37d8 d8b4 7f3b c3bf
00000550: 2035 66f2 7495 e0bf 09fe 734d 4659 e33f
00000560: bc67 df6e 33f8 e23f 778d a643 8a7e d63f
00000570: c4de 156c cbe2 d83f ee12 87fe f0b9 d5bf
00000580: eaee 0287 6099 d43f 64ed a1f3 b756 d0bf
00000590: bbf0 cfed 8fac b1bf 0de7 2565 0da7 d2bf
000005a0: 28f8 abcc e2a1 d7bf fc63 cb29 267f d33f
000005b0: 0e44 221b 5eb6 ce3f b7ce ad82 0dba ce3f
000005c0: 282a 12ed 4149 cd3f a849 ee3c 56b2 923f
000005d0: 76b9 b8ef 03ef d03f 7dc5 b5c1 b7e7 bd3f
000005e0: 7136 88e3 7692 d43f ed45 9dc8 94b9 ac3f
000005f0: 9056 888e b957 c23f f42f ec09 df3d b1bf
00000600: fac4 d6fd 4470 903f ae88 71cc 4e4d c5bf
00000610: c7e8 b7ac 8ecb b9bf c198 6224 21c6 e3bf
00000620: 1a9b 434f f41f b23f 231e 43d7 abea d03f
00000630: 4e10 e572 91f8 e33f 86c1 0f43 addd d33f
00000640: 7046 8773 0b59 dfbf a2f4 812e 0b7e da3f
00000650: cbcc fddd f04c ccbf 0565 3929 769b c1bf
00000660: 7df4 3c3c 48f2 d3bf df4b 1579 5a91 cd3f
00000670: 5266 0506 aa50 d0bf 77b3 43ae dfd9 c93f
00000680: 48d8 f03e 3b8e d03f 655d 9742 ea62 ce3f
00000690: 2efb 79df c399 af3f 601b 7f22 c9e6 d4bf
000006a0: 9fca 1217 d777 dc3f 5497 de0c 1bed c2bf
000006b0: 3833 cbfd b644 c13f 8414 3264 c623 ca3f
000006c0: c5a1 69a4 990b c0bf 367e 0926 92c7 da3f
000006d0: 7f0d 3919 5577 d83f 2a08 8344 916e d4bf
000006e0: 0c90 629a 4b83 d2bf 56e4 6c4d 4bbf dc3f
000006f0: 9a54 33b8 d195 e03f 206c c8c5 ea02 c5bf
00000700: ee3b f8eb bd18 d6bf 068a d13a ad1d b9bf
00000710: b2fd 7abf 20e4 bd3f a2c0 cae9 dc79 d1bf
00000720: b08f 038e 9640 d0bf 500f f33a 3c02 c33f
00000730: 1fc1 203c ae8b b53f 7f23 1f6b 2f1c a53f
00000740: 7020 2b8c 3b01 cebf 8509 59b3 b5d0 c33f
00000750: 3be2 d004 1f02 cfbf c1d8 6838 cd9e c43f
00000760: c729 70e1 e402 e13f 47a5 ab24 50e4 d0bf
00000770: 05f6 7453 4313 b03f 371f 42b9 d743 b93f
00000780: 1fef 3be1 7e62 c0bf d878 8bc3 430a d3bf
00000790: d902 0316 21a2 c63f 0e59 f106 520d ddbf
000007a0: 4888 eab2 1222 ba3f 7a94 4186 d31d 97bf
000007b0: fc6a b9bc f4bb d53f 60d8 806f 4c5a c93f
000007c0: d8f4 5f78 47c3 c93f 4881 10ec 13ca c5bf
000007d0: 5169 efff b6cf be3f 02cd c1da 9b04 b6bf
000007e0: 814e 7589 5d25 a03f a14f db2a bfc0 c43f
000007f0: eec1 620c 55db d5bf 9bf6 6fd1 517c d0bf

b1 f8 [1, 64]
0.06261162098767503 0.06987777717394379 0.15888038585827105 -0.011939522703892754 0.10855189779125694 -0.03671486295896075 -0.06539145319525322 -0.004353809950028707
0.12545414257204407 0.06615338352033534 -0.09793652476325357 0.07067528118048873 -0.09796587068726133 0.01093973778091784 -0.026366934921780168 0.0027147744944453402
-0.01966231450697882 0.013301381713359402 -0.06797578583878021 0.033619207347132085 0.06244610721731667 0.0008682249612097587 0.09252471431995746 -0.12451174958238653
-0.007376709200187913 -0.13328499081161357 -0.027611873823032276 0.05363689646270925 -0.02010583102824097 -0.06117510526233615 0.0006291970879136384 0.008311933358685814
0.20414654084127337 -0.017084923203781757 0.1397709365949047 -0.043642578771467405 0.05045843428958331 -0.0024709374426815484 0.15948671853789706 0.01770176971683143
0.027442087729562477 0.010986418173311438 0.021139320527716457 0.04822785569369199 -0.04783676247923067 0.07027311070342677 -0.06664255090107449 0.003400130179934985
-0.04151724283858631 -0.03640361926528313 -0.03758532175301494 -0.05891493763167228 -0.17606282712487636 0.11288630585233816 -0.028590971599903075 -0.010743112040385291
-0.13910162919462477 0.08734347214470016 0.10497498573644942 -0.011587316429586532 0.01745284894595006 0.02211094902521588 0.04355861152094182 -0.012780012498472333
00000000: 40da 7db0 5007 b03f 3de4 ad8f 82e3 b13f
00000010: 715a 9e46 3156 c43f 7e34 589c bf73 88bf
00000020: 8fa3 eea2 0eca bb3f cf28 5f5f 4acc a2bf
00000030: da59 e988 7ebd b0bf 3eef 92f5 4cd5 71bf
00000040: b650 bf9f e10e c03f 7c55 bd9a 6def b03f
00000050: 622b f13a 5e12 b9bf 2149 4e75 c617 b23f
00000060: 05d8 b992 4a14 b9bf 4384 f7bf 9267 863f
00000070: d23d bd0c efff 9abf ecd5 6d75 4b3d 663f
00000080: d4a5 1597 5b22 94bf 119b 9a3b c13d 8b3f
00000090: 33f3 1871 dc66 b1bf 7091 2568 8936 a13f
000000a0: ad92 85a8 eff8 af3f 4310 30e8 3273 4c3f
000000b0: 2072 131e b3af b73f 4891 6c84 00e0 bfbf
000000c0: cb42 454c 0a37 7ebf 77b1 4a8a 7b0f c1bf
000000d0: 546e 347c 4946 9cbf e821 5598 4b76 ab3f
000000e0: 0c9a e67a 9f96 94bf ffb7 dce8 5752 afbf
000000f0: b473 2975 169e 443f ea64 89cf d805 813f
00000100: 349d 404e 7921 ca3f 44df a8c9 b57e 91bf
00000110: b09e cd98 03e4 c13f 84b7 12f1 5158 a6bf
00000120: 4289 291a b0d5 a93f db88 3770 ee3d 64bf
00000130: c320 2290 0f6a c43f 177a 0fa8 6920 923f
00000140: 8269 5455 c719 9c3f eb52 0916 0c80 863f
00000150: 5408 4ec9 8ba5 953f aad5 eb4d 52b1 a83f
00000160: 4525 ca64 0f7e a8bf 6768 4228 6bfd b13f
00000170: a662 a478 7c0f b1bf c04c 99fd 96da 6b3f
00000180: 7673 6c80 bf41 a5bf 509e 66c4 7ea3 a2bf
00000190: c948 7a1f 623e a3bf 6971 bf44 192a aebf
000001a0: 6a75 450a 3a89 c6bf e052 cdef 1de6 bc3f
000001b0: fb06 ee9f f346 9dbf 583b f716 7c00 86bf
000001c0: a809 1b0a 15ce c1bf 4f6d 614c 245c b63f
000001d0: 8cd8 a202 a4df ba3f f766 e848 17bb 87bf
000001e0: 908f c7dd 28df 913f 918c c9ab 40a4 963f
000001f0: 391b e277 504d a63f 248b c93d 682c 8abf

W2 f8 [64, 32]
-0.37362303684724446 0.835189963319946 0.7947356402093977 -0.6806160997218349 -0.4221033349247329 -0.232063395746635 -0.013925683815223128 -0.012673990047414907
-0.4486244995847041 0.593044544326859 0.5298406273959486 0.7287476942954905 -0.13829425656210126 -0.1453867573024662 0.056930263733390225 0.29058077986385084
0.361559570466281 0.8532058589928414 -0.954762077286099 -0.5797947940704233 -0.266777145833477 -0.020746726349131748 0.06272247455700256 0.8064531909780052
-0.0015857462163308713 -0.44867787098120465 -0.3188258096242454 0.35520952568458913 -0.449551556535944 0.7878740434503028 -0.28432148348462083 0.25405855463444
0.2226953055381448 -0.2627837517480603 -0.8146515935497143 0.25720428227914877 0.15001849582077253 0.28325568055024014 -0.3243637179217818 -0.34484125166836826
0.3129227996209085 0.1638899879346754 -0.6552475652974921 -0.5299363966694024 0.7490782171064023 -0.3323858308115091 0.4713229836914837 0.07110788034692035
-0.03290876503067741 -0.6662770648001626 -0.05797334028890855 0.5810083286603851 0.11823382001046215 0.6559221465003283 0.08173282444681905 -0.046600172999208586
0.2248599896471436 0.3350280432213328 0.08737638563944529 -0.4320104869074321 0.7888257252196594 -0.9126086185278873 0.3112316680132774 -0.17921509678210584
-0.9274096130584423 0.6035845452112529 0.6522515537868739 -0.45763238851600285 -0.5047079791728982 -0.7230571871280116 -0.08288844941661479 0.5262535036882716
-0.07929024741023089 -0.43853561310566536 -0.6272798660465247 0.5067984065711182 -0.05672785784710083 -0.12644470514329403 0.6060449589246857 -0.33194150538525
-0.20506362473635492 1.1531947094647204 -0.4419798669502822 0.13246382196887238 0.008922514958944572 0.07120946551849959 -0.4287820919198623 0.7411907401553671
-0.42547386387890923 -0.22237037712000118 0.7373804505746671 -0.2961052521638947 -0.4431149997105522 0.7052593669010998 -0.574433101657323 0.22075832610845034
0.2222415833145222 0.025671824090513495 -0.1324285569964709 0.48007731307455054 0.1785655474929869 -0.316323507792509 -0.1725651040017038 -0.2925338026722177
0.42259533480951733 -0.4392596687126109 -0.36943322367350095 -0.5573633843708442 0.8289206127858171 -0.07800304737379886 0.11388305969310296 -0.029599095101225503
-0.3738964113968932 0.1424041887751946 -0.005898794568951116 -0.013532318114724292 -0.5770931229117111 0.21026253652058688 0.2098028391468081 0.06692478981978613
0.29927821673782623 0.1733207971258168 0.4321127705555922 0.006889577008592205 0.6982815112674536 -0.1918264790132593 0.4666718464467678 -0.2671576895938554
-0.14195771257448433 -0.12369696264186411 -0.5456808944784285 1.223849168283806 -0.16146972016677336 -0.32684823209131736 -0.03175713687882131 0.48049961514303596
0.8548336550666918 -0.8646316723981436 -0.3457445831957827 -0.9245264063331061 0.4874161808409738 0.49928767976783534 -0.09300242821478787 -0.5365106987871833
-0.5415222167602743 -0.15298772465487753 0.413307272207097 0.033821750082131584 -0.2387039770816096 -0.07076342995322407 -0.1903469963118071 0.17429939119697366
0.4311517973272261 0.9233274775384839 0.7175088733084282 0.46843657692448365 0.4620277797249774 -0.7360533920387706 0.20116071689326365 -0.28657611495919616
-0.11416628928272737 0.015690225195123975 -0.5918646577360221 0.32232793462734244 -0.24968327919875347 -0.07848793980475198 -0.25907085707020633 0.2965553214262804
0.09349446476926256 -0.6640300570554576 0.5057817041181053 0.23871153696561315 0.2686007027082734 0.1323110111432795 -0.05667868507923258 -0.9468829507176961
-0.3501114860360551 -0.1750328381870109 0.1535386462216304 -0.19220930084888366 0.08602647247052453 -0.6462042534764809 -0.10970669825786385 0.29627107031231226
0.8775729616042953 0.6291887812060292 0.43283807127877166 0.777590808679307 -0.019688820167608676 -0.2906980307200175 -0.09001040563860362 0.030911572387477982
-0.028894250413686148 0.13844354637989648 0.10536714445833895 0.02466009734144462 -0.11723470036151089 0.12903494573877522 0.015115030498831755 0.2116992017247707
-0.18219910900778757 -0.34207850397739814 0.7309787216613898 0.14227614044561063 -0.6180042935810627 0.13231831491564006 0.15619114497010458 -0.5668990420648597
-0.465860390353915 0.1872767000587761 0.09968232070689102 -0.020424301422401876 0.22613143673000344 -0.6778065543338282 0.15028448472591863 0.27588067974032704
0.5103286340977111 0.10534749584925675 -0.1014368287617044 1.0054150985055952 -0.9044368278702871 0.14628668590944785 -0.17381632780820977 0.0012282580782142557
-0.6495554102374413 0.1030145301404448 -0.7677956110278379 0.25407729539112456 -0.7954455718967932 -0.06586706768717225 -0.2638814039211765 0.5321878764172416
0.2705771632409475 -0.30179043941440226 0.16872116049934802 0.19396673588266086 -0.2036440330379301 -0.09830723392478131 0.20743947397253307 -0.9257725130784888
-0.4728912332128167 -0.18081667403357435 0.11870941067650677 0.4397575702229947 0.756690051930946 -0.33727333046116836 -0.2709542643822048 0.4078376115050135
0.6003173149945531 0.22496040348315474 0.44940211436339855 0.618712501885193 -0.30136693874609904 -0.3826627808476185 -0.4920895203723881 0.2970648623499575
00000000: ada1 1299 70e9 d7bf ee02 4d4d e0b9 ea3f
00000010: 9047 f56f 796e e93f a0f6 2d6a 9bc7 e5bf
00000020: 5b31 c2b4 bd03 dbbf eb4d aadb 40b4 cdbf
00000030: 1d8f 7ca4 1185 8cbf 9399 1b26 d2f4 89bf
00000040: 92a4 7988 43b6 dcbf 0890 5e8d 38fa e23f
00000050: 403f d854 74f4 e03f ee1a 41af e651 e73f
00000060: 7855 944e a0b3 c1bf bc5a f183 089c c2bf
00000070: 096f c6a9 f625 ad3f 6b21 9720 e098 d23f
00000080: cf57 adc0 ca23 d73f a927 a45f 764d eb3f
00000090: 48f4 2c33 698d eebf 808d ddcf ad8d e2bf
000000a0: 4e33 2b73 e012 d1bf d9a0 ac3c a13e 95bf
000000b0: 024f f280 940e b03f 072c 20ec 76ce e93f
000000c0: 8baf e308 1afb 59bf 5367 9363 23b7 dcbf
000000d0: 213d 5d5e a467 d4bf 39c0 02bc c0bb d63f
000000e0: 7f04 4ce4 73c5 dcbf 0b90 3fa0 4336 e93f
000000f0: 3477 47bc 5232 d2bf fb21 dbcf 7e42 d03f
00000100: dd28 219f 4781 cc3f 0566 ebf0 72d1 d0bf
00000110: 14c5 fd37 a011 eabf 19ed 31f3 0876 d03f
00000120: cc33 ac5a ce33 c33f f7a5 176f dc20 d23f
00000130: d5e9 1e0a 60c2 d4bf db8c 8e0a e111 d6bf
00000140: 20da a259 ed06 d43f 3a1f 29dd 58fa c43f
00000150: 3490 f7bd c9f7 e4bf 20f7 942c 3df5 e0bf
00000160: 8ac6 93e1 72f8 e73f 644f 3f38 cf45 d5bf
00000170: 51b7 33e0 272a de3f 85f1 9344 2034 b23f
00000180: c0f4 1deb 6ad9 a0bf c087 6c47 2452 e5bf
00000190: f056 2981 aeae adbf 6299 49c7 9e97 e23f
000001a0: bae0 3956 9244 be3f ed1c fe70 50fd e43f
000001b0: 8740 0240 71ec b43f 8e01 0a56 fadb a7bf
000001c0: 0c50 db4e 36c8 cc3f 5339 3876 1971 d53f
000001d0: 299c c37e 4c5e b63f 27f9 3250 0fa6 dbbf
000001e0: 3ffb 8172 0f3e e93f 2100 54fd 1634 edbf
000001f0: f82d e63a 38eb d33f 9a76 d031 85f0 c6bf
00000200: f19f c2ec 56ad edbf 2ab5 4189 9050 e33f
00000210: 31f4 88a6 3edf e43f f20f 915b d949 ddbf
00000220: b97d 1259 9126 e0bf 3048 7bd3 4823 e7bf
00000230: 09e4 756b 2d38 b5bf ace3 7796 11d7 e03f
00000240: e4c8 849b 5d4c b4bf 9ae3 1aad f710 dcbf
00000250: 9f7d c339 ad12 e4bf 6269 bc4a b137 e03f
00000260: 386c 730c 6f0b adbf 3ae1 ab10 572f c0bf
00000270: 0c97 cf65 b864 e33f 5623 7495 873e d5bf
00000280: 1ac2 eb5c 863f cabf 9e23 b14b 7c73 f23f
00000290: 61ae 82ec 6549 dcbf 6b36 a113 93f4 c03f
000002a0: 3aeb 92af f745 823f ef4d 9195 c83a b23f
000002b0: 6600 7a71 2a71 dbbf 3b17 a2a4 d5b7 e73f
000002c0: 3369 aaba f63a dbbf 1030 aaec a176 ccbf
000002d0: aeb1 fde2 9e98 e73f ccef 8d71 63f3 d2bf
000002e0: 81ed 0704 ff5b dcbf 6236 8117 7c91 e63f
000002f0: 1c75 2b87 c161 e2bf bb4d 7a0f cf41 cc3f
00000300: 3ad5 1286 6972 cc3f 60f5 96f3 b649 9a3f
00000310: b79b ad40 6bf3 c0bf 5b3b cd31 96b9 de3f
00000320: 035d 5661 3cdb c63f 5f30 3bf4 a43e d4bf
00000330: c11f 0f03 9d16 c6bf 87e8 dcb2 dfb8 d2bf
00000340: 31bd 9c4d cd0b db3f 28a3 e495 d41c dcbf
00000350: 50f2 6e3f cba4 d7bf 798a 7bbc ebd5 e1bf
00000360: d2a6 5c85 8486 ea3f 3b74 75f9 01f8 b3bf
00000370: 6746 f3b0 7027 bd3f c3c7 cda5 394f 9ebf
00000380: 98a6 c236 ebed d7bf e12a cdea 4c3a c23f
00000390: 5ac7 269c 5529 78bf ab39 effd d4b6 8bbf
000003a0: b4df 34ff 8b77 e2bf d307 f7fe e1e9 ca3f
000003b0: a92a 5fc6 d1da ca3f d951 91a7 fb21 b13f
000003c0: 93d3 52d2 5f27 d33f cf9e af39 602f c63f
000003d0: 1718 6e52 bca7 db3f 317c f6be 3e38 7c3f
000003e0: 0672 c977 5258 e63f 2734 ef22 c58d c8bf
000003f0: b3fa 9c97 f3dd dd3f c78d eb90 1c19 d1bf
00000400: 7d10 769a ab2b c2bf 964d 29a9 9aaa bfbf
00000410: b3c7 7ac7 3776 e1bf 8040 90dd e294 f33f
00000420: 568d b42f 0aab c4bf a99b e5d8 14eb d4bf
00000430: b046 9eb0 7842 a0bf 4eea 3175 81c0 de3f
00000440: c102 011c cc5a eb3f 6125 810a 10ab ebbf
00000450: 1a15 66e3 ad20 d6bf b1a6 ef66 b895 edbf
00000460: 8034 10a3 d331 df3f 3b82 f94f 54f4 df3f
00000470: df8f a1d3 01cf b7bf 86d7 277c 182b e1bf
00000480: a15e 6166 2654 e1bf f483 0a0d 1a95 c3bf
00000490: 5905 5558 a073 da3f 3b13 fe9c 1551 a13f
000004a0: 83cd 7e17 da8d cebf e2e1 6659 8d1d b2bf
000004b0: 9d88 0656 4a5d c8bf d7ac 7344 714f c63f
000004c0: 9c73 48b5 fd97 db3f b0d4 f010 e68b ed3f
000004d0: 5b62 2e2b d5f5 e63f 9d03 8968 ddfa dd3f
000004e0: 07c9 f0f6 dc91 dd3f 0a53 ddd7 bf8d e7bf
000004f0: 20f3 2566 a2bf c93f 8120 6458 4357 d2bf
00000500: b465 c67e 003a bdbf e0d9 5130 1911 903f
00000510: 674d 9426 8ef0 e2bf 44f2 7358 05a1 d43f
00000520: ad22 4227 9ff5 cfbf ef81 971e c917 b4bf
00000530: 81a5 9dee 9d94 d0bf d8c2 be2b c3fa d23f
00000540: 6d7f 8ad4 40ef b73f 90a7 53f6 bb3f e5bf
00000550: f346 c31c 5d2f e03f 6efc 3882 198e ce3f
00000560: 4623 7400 c130 d13f f96a e134 91ef c03f
00000570: 3157 9715 fd04 adbf 981e 4f79 dd4c eebf
00000580: f1a4 9e01 3a68 d6bf 75a0 dedd 7967 c6bf
00000590: 89d5 1884 27a7 c33f 8005 917a 509a c8bf
000005a0: c8e4 d9b5 d405 b63f 6af6 e68a b4ad e4bf
000005b0: 316f 2bf9 bc15 bcbf ce81 6fef 1af6 d23f
000005c0: ce37 3ee4 1315 ec3f a347 c982 5022 e43f
000005d0: 61c9 2674 9eb3 db3f 8354 9e1e 06e2 e83f
000005e0: c9e7 dd5a 4e29 94bf 9f0f bde9 cb9a d2bf
000005f0: a77a 8404 ec0a b7bf 7d7c e381 48a7 9f3f
00000600: afe0 4652 7496 9dbf fe9e 05a4 84b8 c13f
00000610: 487f 8557 57f9 ba3f 8a06 641e 7f40 993f
00000620: 0351 02e4 1703 bebf 429d fe93 3784 c03f
00000630: 303c 5d0d a1f4 8e3f 26a4 ff9d f518 cb3f
00000640: a43e 46e7 4c52 c7bf 8cd7 cf3c 9de4 d5bf
00000650: 1971 f37c 2d64 e73f 2385 1bc5 1a36 c23f
00000660: e1fb b6f0 b0c6 e3bf 84bc 9c79 ceef c03f
00000670: 7123 c949 12fe c33f 73ac b975 0924 e2bf
00000680: 5699 4419 a8d0 ddbf 4212 07d3 aef8 c73f
00000690: 4bec 6cd3 c784 b93f f287 9caa 1bea 94bf
000006a0: 732a adfa dff1 cc3f 891a fc5e 97b0 e5bf
000006b0: 713c 7fa1 853c c33f 204f 4570 07a8 d13f
000006c0: 442f 35b7 9c54 e03f 7957 63b1 0df8 ba3f
000006d0: 8c37 2496 c3f7 b9bf 45c7 6f24 2e16 f03f
000006e0: 1507 a080 25f1 ecbf 7120 e9a9 85b9 c23f
000006f0: cc39 b909 9d3f c6bf 1802 ba11 b01f 543f
00000700: 0d1c 7d6d 28c9 e4bf df4c f705 295f ba3f
00000710: 920f ec19 c891 e8bf d01a 976a cd42 d03f
00000720: 8a6e a145 4a74 e9bf 038e 9905 aadc b0bf
00000730: 174c f7d3 6ee3 d0bf 9245 91de ae07 e13f
00000740: 4484 cae0 2251 d13f e1f0 e1d8 8850 d3bf
00000750: 6b72 3ead a798 c53f f75e 90e9 e6d3 c83f
00000760: b833 f6f6 0111 cabf d5ca aab2 a92a b9bf
00000770: bd44 4e6e 608d ca3f a4a6 66ad ed9f edbf
00000780: beb4 4d97 d943 debf 4fd9 c532 0025 c7bf
00000790: 7141 956c bd63 be3f 07ad 91ef fc24 dc3f
000007a0: 0310 480e ce36 e83f b032 09e1 e295 d5bf
000007b0: 82ee 0e8e 5057 d1bf d089 dfec 021a da3f
000007c0: ecf8 63a8 cc35 e33f 6174 eda3 80cb cc3f
000007d0: 4b6b fc15 01c3 dc3f cd24 2729 7ecc e33f
000007e0: fba5 808e 9849 d3bf 92c3 4808 8c7d d8bf
000007f0: f509 2d0b 657e dfbf 215d 2557 1c03 d33f

b2 f8 [1, 32]
0.0534873018574995 -0.00591266460017151 -0.01682795162758623 -0.10098448789886337 0.04720779833035374 0.025303765094049663 0.08764728196444647 -0.09746646620720179
-0.008328688696199392 0.046177472648342585 -0.12368649932482853 -0.02514804937622531 0.008834822821913788 0.03005199006436338 0.03676349399856176 0.04398832756778794
0.034067508885049474 0.011646847040932691 -0.07222829369922038 0.05324784241863037 -0.000788657013045361 0.15751390397344558 0.0035994440770862144 -0.06681999706898423
-0.09719650676721675 0.028077503128149685 -0.05748732174760617 -0.1128207964497274 -0.04552655199631742 0.016813579096287907 0.06743397472397582 0.020042312446754112
00000000: 005f 7508 b062 ab3f 2373 70d1 e037 78bf
00000010: 85bb 98b7 583b 91bf 17ce ed90 1eda b9bf
00000020: 54db e3db 9e2b a83f 28ae 2dee 3ae9 993f
00000030: dfde 9e61 0d70 b63f 100e d1f4 8ff3 b8bf
00000040: 39c8 8cac a10e 81bf 5e52 acdd 92a4 a73f
00000050: ae8e 8e1d eba9 bfbf c92d 8406 69c0 99bf
00000060: a547 b0d8 fd17 823f 314e 06ea f2c5 9e3f
00000070: 072f d228 aad2 a23f a367 9e58 a385 a63f
00000080: bcf2 08e9 4b71 a13f d178 2359 4dda 873f
00000090: 7ab6 48af 8d7d b2bf 5489 8a1b 4d43 ab3f
000000a0: bbd1 150a bcd7 49bf 0d99 1d65 6a29 c43f
000000b0: d424 09d3 947c 6d3f 704e 2186 1d1b b1bf
000000c0: 74c3 d9c9 dee1 b8bf 3745 c156 59c0 9c3f
000000d0: df62 ae6d fa6e adbf ae6c 0fdf d2e1 bcbf
000000e0: d5ff d897 414f a7bf a599 6331 9437 913f
000000f0: 0f2a 145c 5a43 b13f 38e7 fad1 f885 943f

W3 f8 [32, 10]
1.2296950762588088 -1.8117358181997414 -0.15899481365438972 1.5043416103550775 -1.3418181317749156 0.43409597418430557 0.04104760722802104 -1.053862176784079
0.49302071356796356 1.1184450672179194 -1.6188827038337275 1.0133913558578795 0.5163600363042089 -0.9077395767610955 0.7749872565507628 -0.31152505096130334
0.1078469833990577 1.1689289503312936 0.5107619967252394 -1.3038127160881543 -0.7078836947708863 0.25356712086627536 2.2871680094602325 1.1233728510390726
-1.4319945286699403 -1.763447420157452 1.9009743941848134 -1.5109541882441944 1.0030044105704403 -1.547166765443649 1.2111052720159612 -0.1316809010147809
-2.615434371843152 -2.0223054080104816 0.7969950897755962 1.0372329445669717 -0.09610960065660702 -0.7056011286823087 0.4358123443276304 1.9274572486011323
1.2593798193696848 -1.7711381937134822 0.5237155462837201 1.1145264049204149 -2.2833468918439266 -0.07527943070304415 0.5635579995740561 -1.8951420690946374
1.2900897908153581 0.9690206121818133 -0.20731384122937896 -1.7212014169651368 0.20112534741996171 1.8744234414173306 -1.2913273846500386 0.9182524945330741
-1.3547297417553525 0.7674463823416257 -0.6728701807450524 1.0582671278487021 0.2637589346835029 -0.08269541363551335 0.8441058582702367 0.6431689305219005
-1.1229903464815365 -0.599605587419916 0.42246930870531596 -0.7193659069875709 0.38188012325801696 0.20755638530465784 -1.0424254265077462 2.3314508612595026
-0.663733956862764 -0.953721407289015 1.4381617273464309 -1.0230260124669437 0.20515133239806307 0.004331787814542992 -0.9437342806334699 0.3369417631009158
0.9316272138384037 0.20586794400784528 -1.2255136670608908 -1.9216235722854755 0.9645242904096509 0.9031274729587876 0.6056662766905708 0.5279677840608602
-0.38987950911928965 -0.08371971386702812 -0.7925304853703533 -0.27899004958669127 1.0600079962757123 1.4079068474559764 -1.2897447353421079 1.7158959044607904
0.005670084672249118 -0.10839720637805016 -0.8881114250145042 -1.0661590235797014 -2.8250699017863807 1.485937032266645 1.0912217806145277 0.9665681319922069
-2.0473347791362673 1.599004641827261 -2.9127727396829575 0.5426250150685012 0.9350990136675164 1.2674313271842674 -1.6014592757223134 1.269279879894222
1.9026105097809936 1.0466925359960282 -0.9720449894820014 -0.9665767292383116 -1.0343733135923467 1.3748048615087112 0.6781554243090147 -1.4693164291306526
2.172480048895914 -0.674942003945038 -1.1684981590039256 -2.1990587248446056 1.6171674353447987 0.8974888650190673 1.3906311327788912 -0.5179523443335574
0.993232023220972 -1.965907891524773 -0.13030924639827224 0.8000880248687285 -1.446916486044193 0.20500471836421236 0.4653473718956597 -0.2543577940689964
0.7333839218276165 -1.3501637623900578 -0.8900926068589115 1.7305941971863559 0.040203736289722146 -0.6207191059716458 0.0031756076818531156 -0.9780920872274664
1.8087967354256806 -0.43680749140769176 0.14838798364110536 1.7446736886227925 -1.138637896800313 -0.7630132712833663 -0.44121624126049275 0.20824262073057737
1.5974271232625528 0.04528906091140549 -0.9042588823077515 2.110731564322834 1.8201715837838182 -1.319382118980266 -1.648473606441992 -1.4016497358973503
-0.21250011434805374 0.3417452129289996 0.9227879777070533 1.2156984107832263 -0.8853041920871643 0.9401364867890771 0.3185521399009901 -0.7790117202217594
-0.2946605638187283 -0.838069613240357 -1.4211736828902994 1.9866289797801313 2.2383156873057635 -2.32794952944695 1.1686397612879058 -1.020153337697517
2.2373064328200685 -1.5217268040080396 0.3985502526431587 -1.5903471575992043 1.6734020838101502 -0.7199508400757078 -1.2997077021521577 0.3604707712406942
-0.7918898231106514 -0.3678283739219658 -1.162858160938547 -0.41840336475529943 -0.1387696096345939 2.4575273619537823 0.9791482746706613 -0.9623959500524044
-0.3871833078235113 -0.3554771429804799 0.6613636150395359 -0.4850709799710908 -1.4166492523118794 2.763521876354719 -1.271292978969248 0.5981872007499371
-0.8410831472811787 0.39222237067827254 -0.2706246017992912 0.5535724120156672 0.24729681875504683 -0.40982168744191694 -1.1565328540943238 2.6864121275219923
-1.9724314746218738 0.656318622126874 0.9699159964961411 -1.2638284984064707 0.7747982196913532 -0.7899996674624443 -0.007100229344672283 1.1164037093918926
0.7230100052688949 0.6130959475630612 -1.2239287665705485 -0.7235937230575137 0.1034883579802455 -1.2647484692711979 0.7445279431466113 0.9604783212813054
-1.3147486864669962 0.3185272761791762 -0.7841348902943502 0.22404409769387723 0.710738491452845 0.10782034059140871 -1.6168962449060758 1.1090340757578268
0.10315151619170014 -0.8859399185997221 1.1759805070336502 -0.5356236557971447 -0.11374505820010998 0.8277658397775353 1.175281803936452 -1.3327382027611194
-0.6170378709473516 0.7171561450814177 -2.243505746636655 0.6851235262606128 0.848850249980801 0.42613842708386335 -1.5184801169033253 0.21110120936394416
0.6720036909143793 0.9174089697157537 0.7070985908967538 0.5945770018515112 -2.920421845488405 -0.33071122661155145 1.0940826446491505 -0.4789428146743936
00000000: 4957 89be d4ac f33f 188e 82b2 defc fcbf
00000010: 388a 702a f159 c4bf e3ca 2782 c811 f83f
00000020: 0573 124a 1678 f5bf 3c99 1c7b 3ac8 db3f
00000030: c12e 3f25 3104 a53f be76 fc95 9edc f0bf
00000040: 6399 41c0 a68d df3f ff2c a1a7 26e5 f13f
00000050: 246a d08c f1e6 f9bf cc56 b7da d936 f03f
00000060: 166a 9c7b 0586 e03f 4329 6fde 330c edbf
00000070: 2579 3613 b2cc e83f b2dd 70c4 06f0 d3bf
00000080: 45d4 ab22 dc9b bb3f 0754 d0d7 eeb3 f23f
00000090: 9d2f ff8a 2958 e03f 2652 fbb8 6adc f4bf
000000a0: 0b34 cdb4 fba6 e6bf bd89 dd96 713a d03f
000000b0: 83b6 c8bd 1e4c 0240 63d5 86cf 55f9 f13f
000000c0: 6403 4b18 73e9 f6bf 53ab 5ca4 1437 fcbf
000000d0: 3cea 5820 646a fe3f 6c35 844c de2c f8bf
000000e0: ff4c 525a 4e0c f03f 019e 30f0 31c1 f8bf
000000f0: d625 f5eb af60 f33f d3e2 ae75 ebda c0bf
00000100: 8334 1fdb 68ec 04c0 806e 2f75 ae2d 00c0
00000110: a414 b5d8 fb80 e93f 98fb 7392 8198 f03f
00000120: e9d8 a687 a39a b8bf 2ec2 76d1 4894 e6bf
00000130: 0a23 8575 59e4 db3f 4de1 7269 ddd6 fe3f
00000140: 83f6 1674 6b26 f43f 7c22 ab00 9556 fcbf
00000150: 5340 f61a 47c2 e03f 0f96 baa3 19d5 f13f
00000160: b024 0f60 4b44 02c0 cb5a ee44 8345 b3bf
00000170: 6a3b 32c9 aa08 e23f 5890 807d 8052 febf
00000180: 8049 4731 35a4 f43f b110 cf83 3702 ef3f
00000190: 0a4e 0b8c 4289 cabf 201b 3b7f 0a8a fbbf
000001a0: 295e c8b2 79be c93f 2de4 3b6f a3fd fd3f
000001b0: 9f04 58e7 46a9 f4bf daad 2f0e 5362 ed3f
000001c0: ce1f fc17 f9ac f5bf c9e7 32b7 eb8e e83f
000001d0: 911d 980b 2788 e5bf 24ac 0883 a9ee f03f
000001e0: 9b94 9f27 6de1 d03f 2ffe 17d1 862b b5bf
000001f0: e53e f449 ea02 eb3f afa2 4c02 d794 e43f
00000200: 60ca bdb9 c4f7 f1bf 02f5 8e0e f82f e3bf
00000210: f0fe 1cb6 bc09 db3f cece 8ba6 0b05 e7bf
00000220: 31ae 1854 b970 d83f 41d0 7a27 3591 ca3f
00000230: f8e9 b548 c6ad f0bf 8bb9 8ab5 cfa6 0240
00000240: 420c bffe 4e3d e5bf 32a5 b9c1 e284 eebf
00000250: 17fd 14df b502 f73f 840b 2886 505e f0bf
00000260: 6db4 b01b 6642 ca3f e05f f26f 35be 713f
00000270: 34ea ed3b 1233 eebf 6933 4b2f 7490 d53f
00000280: 41fc efdf e3cf ed3f 717b 677b e159 ca3f
00000290: ae3d 0d38 b49b f3bf 5d05 e35b f8be febf
000002a0: d039 700b 62dd ee3f 8b44 0f96 6be6 ec3f
000002b0: 85a2 553e 9e61 e33f 6941 bcb1 1ce5 e03f
000002c0: 8310 432f c9f3 d8bf 86e0 16b9 a76e b5bf
000002d0: 23f5 77e4 685c e9bf ac97 b814 f9da d1bf
000002e0: f40a d8f1 caf5 f03f c134 9a54 c986 f63f
000002f0: 70b8 2760 cba2 f4bf b0fd 8f43 4f74 fb3f
00000300: 4acc b9c3 8339 773f d719 5f58 ebbf bbbf
00000310: 2385 b4a6 686b ecbf 03c3 a9c3 fc0e f1bf
00000320: 06b1 a83f be99 06c0 3302 d8e8 65c6 f73f
00000330: acc1 46f8 a475 f13f 1765 884a 20ee ee3f
00000340: 47d4 820e f160 00c0 f2cd 2ce4 8595 f93f
00000350: f1f2 4ccb 5b4d 07c0 38be b622 2f5d e13f
00000360: b229 47c4 54ec ed3f b8ea 4212 6647 f43f
00000370: a3a6 f1c2 939f f9bf 26dd 596b f84e f43f
00000380: 6890 c8b7 1771 fe3f b81f 31ac 40bf f03f
00000390: 861b 0218 fe1a efbf fae6 2452 32ee eebf
000003a0: 9ebf 1b08 cb8c f0bf d2fc e861 33ff f53f
000003b0: 1e64 2001 73b3 e53f 6b77 a9f1 5182 f7bf
000003c0: 72c3 4938 3d61 0140 2280 34f9 1f99 e5bf
000003d0: a6ba 2520 2bb2 f2bf 4287 c919 ac97 01c0
000003e0: c864 eff5 eadf f93f 62fe 7891 3ab8 ec3f
000003f0: 395b 416e 0640 f63f b892 79cb 1093 e0bf
00000400: 1b5e 2286 8ec8 ef3f 65c1 50d5 5b74 ffbf
00000410: 68d0 d22f f9ad c0bf 0470 9733 529a e93f
00000420: 17a6 b9e6 9126 f7bf a232 7338 983d ca3f
00000430: f391 e457 40c8 dd3f 2694 c0e9 6547 d0bf
00000440: bd2d f58e e177 e73f 935a 3b51 459a f5bf
00000450: 66da 9b7d a37b ecbf 1f01 798a 83b0 fb3f
00000460: cb2d 1589 9595 a43f 87d1 8450 eedc e3bf
00000470: 2779 6e64 bb03 6a3f 81c9 e3c6 874c efbf
00000480: e13c 7cd8 d4f0 fc3f 079b 8f68 a7f4 dbbf
00000490: abd0 6da0 60fe c23f ad39 2df5 2eea fb3f
000004a0: a7e5 0b5f dc37 f2bf df6e d2ce 9a6a e8bf
000004b0: 1862 ab0b e33c dcbf 9ee8 d5b6 b1a7 ca3f
000004c0: 147f 42be 0f8f f93f af4a f6b6 2030 a73f
000004d0: 4623 d452 b0ef ecbf 4236 fb3a c7e2 0040
000004e0: 415c 173d 6c1f fd3f a528 bf6c 301c f5bf
000004f0: edcc 3fdc 2560 fabf bd04 0246 286d f6bf
00000500: 15b5 c228 3433 cbbf 160e 4650 27df d53f
00000510: c699 2ca7 7a87 ed3f 62cf 412d 8073 f33f
00000520: 96d5 0075 6954 ecbf 2e22 111d 9915 ee3f
00000530: 3484 bc83 2863 d43f 79b3 b1fc a9ed e8bf
00000540: 546e 41fb b7db d2bf 3f70 945d 77d1 eabf
00000550: 0432 9f9d 20bd f6bf 6c10 1778 3bc9 ff3f
00000560: eed0 180e 12e8 0140 b7b4 bd00 a49f 02c0
00000570: be96 389b bfb2 f23f a90e 654e 8c52 f0bf
00000580: adbd 40ea 00e6 0140 ff93 8a34 fe58 f8bf
00000590: ca8d 3aeb d881 d93f 60cd 72dc 0f72 f9bf
000005a0: 945d 7043 41c6 fa3f e24a 1b58 d609 e7bf
000005b0: 2da5 b14d 9acb f4bf a721 69ff f311 d73f
000005c0: 8374 8953 2957 e9bf f348 2205 808a d7bf
000005d0: 5de2 b128 119b f2bf 8143 0ae8 1ec7 dabf
000005e0: 1296 87db 33c3 c1bf e6ee 041b 04a9 0340
000005f0: 6da6 34c3 2e55 ef3f c6e4 6897 f2cb eebf
00000600: 662e 2a7f 9cc7 d8bf 47e8 e433 23c0 d6bf
00000610: 147e 2b07 e429 e53f 77ba cd26 670b dfbf
00000620: 6851 0968 98aa f6bf e7ca 855b b11b 0640
00000630: d9ea 844e 3757 f4bf a26a 037c 5924 e33f
00000640: e142 5934 27ea eabf 43a8 b4db 2b1a d93f
00000650: 8324 8ed9 e951 d1bf 7367 b27d ddb6 e13f
00000660: 1098 7a12 6ca7 cf3f d44a 30be 843a dabf
00000670: c55a 1198 2881 f2bf 2547 3aa4 c57d 0540
00000680: cda1 514e 148f ffbf 764d 39e9 8f00 e53f
00000690: 812e 9a45 8d09 ef3f 8b89 463b a438 f4bf
000006a0: 2c59 d2a2 25cb e83f 3044 f361 ad47 e9bf
000006b0: 287f 454d 2115 7dbf 4f8a cf22 cadc f13f
000006c0: 2ff1 e9e0 e522 e73f c7fd 8264 7b9e e33f
000006d0: b1dd 9054 3695 f3bf d1ee 0306 ae27 e7bf
000006e0: a2b9 0a89 367e ba3f 44f9 12e4 683c f4bf
000006f0: 21bb d843 2cd3 e73f 2d72 4d08 3dbc ee3f
00000700: f55a 2deb 3509 f5bf 94b4 843a c062 d43f
00000710: e1ef ae0d a217 e9bf 0480 3a1c 7aad cc3f
00000720: 0a8c 19a6 5ebe e63f c405 af24 1d9a bb3f
00000730: 4d59 ce98 cede f9bf a378 d883 9abe f13f
00000740: a77f 9344 2368 ba3f 286a 13ac 9e59 ecbf
00000750: a216 a7ef d0d0 f23f 379b 9338 d423 e1bf
00000760: 2b14 0d69 651e bdbf 4be5 52c9 0e7d ea3f
00000770: eada f74a f4cd f23f 3ad2 2f4b e552 f5bf
00000780: 5298 8334 c6be e3bf fc00 a871 f1f2 e63f
00000790: 3b8a 1124 b3f2 01c0 104e 602c 88ec e53f
000007a0: 90ce dbff c729 eb3f 8138 f91b da45 db3f
000007b0: db9d 9bce b14b f8bf c09d 2e4b 5d05 cb3f
000007c0: f997 68e2 0d81 e53f 168f 3f0e 6a5b ed3f
000007d0: 2e60 5e39 8da0 e63f b9fd 3c59 c606 e33f
000007e0: 5f2c e720 065d 07c0 bbdd ad6b 5f2a d5bf
000007f0: 893a 9ecd 5c81 f13f be90 6bc3 ffa6 debf

b3 f8 [1, 10]
0.10696224594417587 0.01196747112328795 0.13485620822299532 -0.034908497694309884 -0.18552126875035668 -0.02304740268149974 -0.12930479516338633 0.003956884943618635
0.0061418123933134625 0.10889734166216054
00000000: 5da8 3cb4 e061 bb3f 6407 b9c8 6682 883f
00000010: 7e7b fddd f742 c13f ba2b e6cf 86df a1bf
00000020: 0063 ff32 29bf c7bf 0061 1903 bd99 97bf
00000030: 28ab 383d 0f8d c0bf d07c d436 1835 703f
00000040: 0112 e135 2828 793f fd70 0f39 b2e0 bb3f
